…
be allowed to be loaded via this mode unless they are explicitly allowlisted by the user via `torch.serialization.add_safe_globals`. We recommend you start setting `weights_only=True` for any use case where you don't have full control of the loaded file. Please open an issue on GitHub for any issues related to this experimental feature.
  checkpoint = torch.load(args.checkpoint_path)
configuration: K(3)_loss(bce)_retrieval(ours)_split(year)_seed(42)_gnn(GraphNetwork)_lr(0.0001)_batch_size(128)_embedder(Retrieval_Retro)_
cuda:0
Dataset Loaded!
Retrieval_Retro(
  (classifier): Sequential(
    (0): Linear(in_features=768, out_features=768, bias=True)
    (1): PReLU(num_parameters=1)
    (2): Linear(in_features=768, out_features=1142, bias=True)
    (3): Sigmoid()
  )
  (gnn): GraphNetwork(
    (GN_encoder): Encoder(
      (node_encoder): Sequential(
        (0): Linear(in_features=200, out_features=256, bias=True)
        (1): PReLU(num_parameters=1)
        (2): Linear(in_features=256, out_features=256, bias=True)
      )
      (edge_encoder): Sequential(
        (0): Linear(in_features=400, out_features=256, bias=True)
        (1): PReLU(num_parameters=1)
        (2): Linear(in_features=256, out_features=256, bias=True)
      )
    )
    (stacked_processor): ModuleList(
      (0-2): 3 x Processor(
        (edge_model): EdgeModel(
          (edge_mlp): Sequential(
            (0): Linear(in_features=768, out_features=512, bias=True)
            (1): LayerNorm((512,), eps=1e-05, elementwise_affine=True)
            (2): PReLU(num_parameters=1)
            (3): Linear(in_features=512, out_features=256, bias=True)
          )
        )
        (node_model): NodeModel(
          (node_mlp_1): Sequential(
            (0): Linear(in_features=512, out_features=512, bias=True)
            (1): LayerNorm((512,), eps=1e-05, elementwise_affine=True)
            (2): PReLU(num_parameters=1)
            (3): Linear(in_features=512, out_features=256, bias=True)
          )
          (node_mlp_2): Sequential(
            (0): Linear(in_features=512, out_features=512, bias=True)
            (1): LayerNorm((512,), eps=1e-05, elementwise_affine=True)
            (2): PReLU(num_parameters=1)
            (3): Linear(in_features=512, out_features=256, bias=True)
          )
        )
      )
    )
  )
  (self_attention): Self_TransformerEncoder_non(
    (layers): ModuleList(
      (0): TransformerEncoderLayer(
        (self_attn): MultiheadAttention_sa_non()
        (fc1): Linear(in_features=256, out_features=2048, bias=True)
        (fc2): Linear(in_features=2048, out_features=256, bias=True)
        (layer_norms): ModuleList(
          (0-1): 2 x LayerNorm((256,), eps=1e-05, elementwise_affine=True)
        )
      )
    )
    (layer_norm): LayerNorm((256,), eps=1e-05, elementwise_affine=True)
  )
  (cross_attention): Cross_TransformerEncoder_non(
    (layers): ModuleList(
      (0-1): 2 x TransformerEncoderLayer(
        (self_attn): MultiheadAttention_non()
        (fc1): Linear(in_features=256, out_features=2048, bias=True)
        (fc2): Linear(in_features=2048, out_features=256, bias=True)
        (layer_norms): ModuleList(
          (0-1): 2 x LayerNorm((256,), eps=1e-05, elementwise_affine=True)
        )
      )
    )
    (layer_norm): LayerNorm((256,), eps=1e-05, elementwise_affine=True)
  )
  (fusion_linear): Sequential(
    (0): Linear(in_features=512, out_features=256, bias=True)
    (1): PReLU(num_parameters=1)
  )
  (self_attention_2): Self_TransformerEncoder_non(
    (layers): ModuleList(
      (0): TransformerEncoderLayer(
        (self_attn): MultiheadAttention_sa_non()
        (fc1): Linear(in_features=256, out_features=2048, bias=True)
        (fc2): Linear(in_features=2048, out_features=256, bias=True)
        (layer_norms): ModuleList(
          (0-1): 2 x LayerNorm((256,), eps=1e-05, elementwise_affine=True)
        )
      )
    )
    (layer_norm): LayerNorm((256,), eps=1e-05, elementwise_affine=True)
  )
  (cross_attention_2): Cross_TransformerEncoder_non(
    (layers): ModuleList(
      (0-1): 2 x TransformerEncoderLayer(
        (self_attn): MultiheadAttention_non()
        (fc1): Linear(in_features=256, out_features=2048, bias=True)
        (fc2): Linear(in_features=2048, out_features=256, bias=True)
        (layer_norms): ModuleList(
          (0-1): 2 x LayerNorm((256,), eps=1e-05, elementwise_affine=True)
        )
      )
    )
    (layer_norm): LayerNorm((256,), eps=1e-05, elementwise_affine=True)
  )
  (fusion_linear_2): Sequential(
    (0): Linear(in_features=512, out_features=256, bias=True)
    (1): PReLU(num_parameters=1)
  )
)
Loaded model and optimizer checkpoint from checkpoints/RR/hard/epoch450_top5_acc_0.4008_42.pt
Resuming from epoch 450
Top-1 ACC: 0.3676
Top-3 ACC: 0.3921
Top-5 ACC: 0.4008
Top-10 ACC: 0.4180
Micro Recall: 0.3200
Macro Recall: 0.3194
[ epoch 451/1000 | batch 0/23 ] Total Loss : 0.0002[ epoch 451/1000 | batch 1/23
…
